…
To enable the following instructions: AVX2 FMA, in other operations, rebuild TensorFlow with the appropriate compiler flags.
Train dataset size (batches): 754
Validation dataset size (batches): 86
WARNING:tensorflow:From C:\Python311\Lib\site-packages\keras\src\backend\tensorflow\core.py:232: The name tf.placeholder is deprecated. Please use tf.compat.v1.placeholder instead.


Model Summary:
Model: "AgePredictionModel"
┌─────────────────────────────────┬────────────────────────┬───────────────┐
│ Layer (type)                    │ Output Shape           │       Param # │
├─────────────────────────────────┼────────────────────────┼───────────────┤
│ prep_input (InputLayer)         │ (None, 256, 256, 1)    │             0 │
├─────────────────────────────────┼────────────────────────┼───────────────┤
│ prep_conv1a (Conv2D)            │ (None, 256, 256, 32)   │           320 │
├─────────────────────────────────┼────────────────────────┼───────────────┤
│ prep_bn1a (BatchNormalization)  │ (None, 256, 256, 32)   │           128 │
├─────────────────────────────────┼────────────────────────┼───────────────┤
│ prep_relu1a (Activation)        │ (None, 256, 256, 32)   │             0 │
├─────────────────────────────────┼────────────────────────┼───────────────┤
│ prep_conv1b (Conv2D)            │ (None, 256, 256, 32)   │         9,248 │
├─────────────────────────────────┼────────────────────────┼───────────────┤
│ prep_bn1b (BatchNormalization)  │ (None, 256, 256, 32)   │           128 │
├─────────────────────────────────┼────────────────────────┼───────────────┤
│ prep_relu1b (Activation)        │ (None, 256, 256, 32)   │             0 │
├─────────────────────────────────┼────────────────────────┼───────────────┤
│ prep_pool1 (MaxPooling2D)       │ (None, 128, 128, 32)   │             0 │
├─────────────────────────────────┼────────────────────────┼───────────────┤
│ prep_conv2a (Conv2D)            │ (None, 128, 128, 64)   │        18,496 │
├─────────────────────────────────┼────────────────────────┼───────────────┤
│ prep_bn2a (BatchNormalization)  │ (None, 128, 128, 64)   │           256 │
├─────────────────────────────────┼────────────────────────┼───────────────┤
│ prep_relu2a (Activation)        │ (None, 128, 128, 64)   │             0 │
├─────────────────────────────────┼────────────────────────┼───────────────┤
│ prep_conv2b (Conv2D)            │ (None, 128, 128, 64)   │        36,928 │
├─────────────────────────────────┼────────────────────────┼───────────────┤
│ prep_bn2b (BatchNormalization)  │ (None, 128, 128, 64)   │           256 │
├─────────────────────────────────┼────────────────────────┼───────────────┤
│ prep_relu2b (Activation)        │ (None, 128, 128, 64)   │             0 │
├─────────────────────────────────┼────────────────────────┼───────────────┤
│ prep_pool2 (MaxPooling2D)       │ (None, 64, 64, 64)     │             0 │
├─────────────────────────────────┼────────────────────────┼───────────────┤
│ prep_conv3a (Conv2D)            │ (None, 64, 64, 128)    │        73,856 │
├─────────────────────────────────┼────────────────────────┼───────────────┤
│ prep_bn3a (BatchNormalization)  │ (None, 64, 64, 128)    │           512 │
├─────────────────────────────────┼────────────────────────┼───────────────┤
│ prep_relu3a (Activation)        │ (None, 64, 64, 128)    │             0 │
├─────────────────────────────────┼────────────────────────┼───────────────┤
│ prep_conv3b (Conv2D)            │ (None, 64, 64, 128)    │       147,584 │
├─────────────────────────────────┼────────────────────────┼───────────────┤
│ prep_bn3b (BatchNormalization)  │ (None, 64, 64, 128)    │           512 │
├─────────────────────────────────┼────────────────────────┼───────────────┤
│ prep_relu3b (Activation)        │ (None, 64, 64, 128)    │             0 │
├─────────────────────────────────┼────────────────────────┼───────────────┤
│ prep_pool3 (MaxPooling2D)       │ (None, 32, 32, 128)    │             0 │
├─────────────────────────────────┼────────────────────────┼───────────────┤
│ prep_conv4a (Conv2D)            │ (None, 32, 32, 256)    │       295,168 │
├─────────────────────────────────┼────────────────────────┼───────────────┤
│ prep_bn4a (BatchNormalization)  │ (None, 32, 32, 256)    │         1,024 │
├─────────────────────────────────┼────────────────────────┼───────────────┤
│ prep_relu4a (Activation)        │ (None, 32, 32, 256)    │             0 │
├─────────────────────────────────┼────────────────────────┼───────────────┤
│ prep_conv4b (Conv2D)            │ (None, 32, 32, 256)    │       590,080 │
├─────────────────────────────────┼────────────────────────┼───────────────┤
│ prep_bn4b (BatchNormalization)  │ (None, 32, 32, 256)    │         1,024 │
├─────────────────────────────────┼────────────────────────┼───────────────┤
│ prep_relu4b (Activation)        │ (None, 32, 32, 256)    │             0 │
├─────────────────────────────────┼────────────────────────┼───────────────┤
│ prep_pool4 (MaxPooling2D)       │ (None, 16, 16, 256)    │             0 │
├─────────────────────────────────┼────────────────────────┼───────────────┤
│ conv5a (Conv2D)                 │ (None, 16, 16, 256)    │       590,080 │
├─────────────────────────────────┼────────────────────────┼───────────────┤
│ bn5a (BatchNormalization)       │ (None, 16, 16, 256)    │         1,024 │
├─────────────────────────────────┼────────────────────────┼───────────────┤
│ relu5a (Activation)             │ (None, 16, 16, 256)    │             0 │
├─────────────────────────────────┼────────────────────────┼───────────────┤
│ conv5b (Conv2D)                 │ (None, 16, 16, 256)    │       590,080 │
├─────────────────────────────────┼────────────────────────┼───────────────┤
│ bn5b (BatchNormalization)       │ (None, 16, 16, 256)    │         1,024 │
├─────────────────────────────────┼────────────────────────┼───────────────┤
│ relu5b (Activation)             │ (None, 16, 16, 256)    │             0 │
├─────────────────────────────────┼────────────────────────┼───────────────┤
│ pool5 (MaxPooling2D)            │ (None, 8, 8, 256)      │             0 │
├─────────────────────────────────┼────────────────────────┼───────────────┤
│ attention_prep                  │ (None, 8, 8, 256)      │         3,200 │
│ (SpatialAttention)              │                        │               │
├─────────────────────────────────┼────────────────────────┼───────────────┤
│ flatten_features (Flatten)      │ (None, 16384)          │             0 │
├─────────────────────────────────┼────────────────────────┼───────────────┤
│ dense1 (Dense)                  │ (None, 512)            │     8,389,120 │
├─────────────────────────────────┼────────────────────────┼───────────────┤
│ bn_dense1 (BatchNormalization)  │ (None, 512)            │         2,048 │
├─────────────────────────────────┼────────────────────────┼───────────────┤
│ dropout1 (Dropout)              │ (None, 512)            │             0 │
├─────────────────────────────────┼────────────────────────┼───────────────┤
│ dense2 (Dense)                  │ (None, 256)            │       131,328 │
├─────────────────────────────────┼────────────────────────┼───────────────┤
│ bn_dense2 (BatchNormalization)  │ (None, 256)            │         1,024 │
├─────────────────────────────────┼────────────────────────┼───────────────┤
│ dropout2 (Dropout)              │ (None, 256)            │             0 │
├─────────────────────────────────┼────────────────────────┼───────────────┤
│ dense3 (Dense)                  │ (None, 128)            │        32,896 │
├─────────────────────────────────┼────────────────────────┼───────────────┤
│ bn_dense3 (BatchNormalization)  │ (None, 128)            │           512 │
├─────────────────────────────────┼────────────────────────┼───────────────┤
│ dropout3 (Dropout)              │ (None, 128)            │             0 │
├─────────────────────────────────┼────────────────────────┼───────────────┤
│ age_output (Dense)              │ (None, 1)              │           129 │
└─────────────────────────────────┴────────────────────────┴───────────────┘
 Total params: 10,917,985 (41.65 MB)
 Trainable params: 10,913,249 (41.63 MB)
 Non-trainable params: 4,736 (18.50 KB)

Avvio dell'addestramento:

Avvio dell'addestramento del modello per 50 epoche...
Epoch 1/50
754/754 ━━━━━━━━━━━━━━━━━━━━ 0s 5s/step - loss: 124.0564 - mae: 123.8191
Epoch 1: val_mae improved from inf to 44.92442, saving model to best_age_prediction_model_standalone.keras
…
